…
de","source":["generator.apply(weights_init)"],"metadata":{"id":"6N4CVI0qwKoh","colab":{"base_uri":"https://localhost:8080/"},"executionInfo":{"status":"ok","timestamp":1667108048603,"user_tz":-540,"elapsed":25,"user":{"displayName":"최지웅","userId":"05697610478822567118"}},"outputId":"e525b9ea-c47b-4ffe-f21b-d539d980d6b0"},"execution_count":null,"outputs":[{"output_type":"stream","name":"stdout","text":["Trans\n","Batch\n","Trans\n","Batch\n","Trans\n","Batch\n","Trans\n","Batch\n","Trans\n"]},{"output_type":"execute_result","data":{"text/plain":["Generator(\n","  (main): Sequential(\n","    (0): ConvTranspose2d(100, 512, kernel_size=(4, 4), stride=(1, 1), bias=False)\n","    (1): BatchNorm2d(512, eps=1e-05, momentum=0.1, affine=True, track_running_stats=True)\n","    (2): ReLU(inplace=True)\n","    (3): ConvTranspose2d(512, 256, kernel_size=(4, 4), stride=(2, 2), padding=(1, 1), bias=False)\n","    (4): BatchNorm2d(256, eps=1e-05, momentum=0.1, affine=True, track_running_stats=True)\n","    (5): ReLU(inplace=True)\n","    (6): ConvTranspose2d(256, 128, kernel_size=(4, 4), stride=(2, 2), padding=(1, 1), bias=False)\n","    (7): BatchNorm2d(128, eps=1e-05, momentum=0.1, affine=True, track_running_stats=True)\n","    (8): ReLU(inplace=True)\n","    (9): ConvTranspose2d(128, 64, kernel_size=(4, 4), stride=(2, 2), padding=(1, 1), bias=False)\n","    (10): BatchNorm2d(64, eps=1e-05, momentum=0.1, affine=True, track_running_stats=True)\n","    (11): ReLU(inplace=True)\n","    (12): ConvTranspose2d(64, 3, kernel_size=(4, 4), stride=(2, 2), padding=(1, 1), bias=False)\n","    (13): Tanh()\n","  )\n",")"]},"metadata":{},"execution_count":12}]},{"cell_type":"code","source":["discriminator.apply(weights_init)"],"metadata":{"id":"nCpQj5ppwXol","colab":{"base_uri":"https://localhost:8080/"},"executionInfo":{"status":"ok","timestamp":1667108048603,"user_tz":-540,"elapsed":23,"user":{"displayName":"최지웅","userId":"05697610478822567118"}},"outputId":"9dea20f8-e267-4fac-b3a8-f8149553f3c3"},"execution_count":null,"outputs":[{"output_type":"stream","name":"stdout","text":["Conv\n","Conv\n","Batch\n","Conv\n","Batch\n","Conv\n","Batch\n","Conv\n"]},{"output_type":"execute_result","data":{"text/plain":["Discriminator(\n","  (main): Sequential(\n","    (0): Conv2d(3, 64, kernel_size=(4, 4), stride=(2, 2), padding=(1, 1), bias=False)\n","    (1): LeakyReLU(negative_slope=0.2, inplace=True)\n","    (2): Conv2d(64, 128, kernel_size=(4, 4), stride=(2, 2), padding=(1, 1), bias=False)\n","    (3): BatchNorm2d(128, eps=1e-05, momentum=0.1, affine=True, track_running_stats=True)\n","    (4): LeakyReLU(negative_slope=0.2, inplace=True)\n","    (5): Conv2d(128, 256, kernel_size=(4, 4), stride=(2, 2), padding=(1, 1), bias=False)\n","    (6): BatchNorm2d(256, eps=1e-05, momentum=0.1, affine=True, track_running_stats=True)\n","    (7): LeakyReLU(negative_slope=0.2, inplace=True)\n","    (8): Conv2d(256, 512, kernel_size=(4, 4), stride=(2, 2), padding=(1, 1), bias=False)\n","    (9): BatchNorm2d(512, eps=1e-05, momentum=0.1, affine=True, track_running_stats=True)\n","    (10): LeakyReLU(negative_slope=0.2, inplace=True)\n","    (11): Conv2d(512, 1, kernel_size=(4, 4), stride=(1, 1), bias=False)\n","    (12): Sigmoid()\n","  )\n",")"]},"metadata":{},"execution_count":13}]},{"cell_type":"code","source":["discriminator.state_dict()"],"metadata":{"colab":{"base_uri":"https://localhost:8080/"},"id":"TG7gys9zf-m5","executionInfo":{"status":"ok","timestamp":1667108048604,"user_tz":-540,"elapsed":22,"user":{"displayName":"최지웅","userId":"0569
…
